PyTorch Game Application/model.pth (torch, 17216 bytes, 4 tensors)

linear1.weight f4 [256, 11]
-0.21371283 -0.39879227 -0.020736828 0.119166166 -0.13122864 -0.12430803 -0.15843016 0.30024827
-0.1376639 -0.20201856 0.014866594 0.15141222 0.08847034 -0.36568063 0.15659454 -0.18979555
-0.31999922 -0.12900557 -0.21127068 0.119300544 0.2092804 0.28488016 0.054057974 -0.30204716
0.53105074 -0.37043616 -0.084376074 -0.049006525 -0.15029562 -0.16816315 0.11070324 -0.11850262
-0.0018221091 -0.032917693 0.25266477 -0.37979504 -0.11187792 -0.015871791 -0.11318131 0.15811671
0.10095529 0.13828745 0.11317621 -0.15284033 -0.048268843 -0.51453996 0.27591923 -0.17552955
0.17900744 -0.057156794 -0.005545261 -0.014943557 -0.24265711 0.07987028 0.19292003 -0.028415725
0.008400928 -0.024302047 0.026146023 -0.03642512 0.46335313 0.44321516 -0.034505207 0.022272013
-0.47036242 -0.48505905 0.47675297 -0.69731194 0.032030053 0.17491397 0.25546402 0.12482371
0.2686871 0.1575867 0.2752068 0.24948594 0.029096669 0.040878978 0.2738894 0.29037067
0.17730369 -0.04422855 -0.049162734 -0.23399128 -0.19131316 0.030786239 0.13760012 0.42422232
0.37916458 -0.4155465 -0.08357964 -0.074849434 -0.009114347 0.03893753 -0.07354388 -0.35928357
-0.16084869 0.0117788 0.016255049 0.30374116 -0.33280805 0.47815517 -0.100367844 0.042932346
-0.27821812 0.3531544 0.21762833 0.16027825 0.42812192 -0.36315283 0.027110714 0.5236836
0.23618974 -0.1336026 -0.045411088 -0.050415047 -0.1673155 -0.034979824 0.2255388 0.07264698
-0.048940927 0.16369477 -0.2309452 0.1768398 0.27875853 -0.21431322 -0.052335102 -0.031975716
0.015833292 0.041786276 0.11217239 0.12570825 0.4431472 0.0801743 -0.1941154 -0.34105462
-0.3110879 0.20383006 0.17470245 -0.032001022 0.023585288 -0.45414326 -0.45608857 0.49789983
0.18448474 -0.25886708 0.21494198 0.14180186 -0.006154636 0.0028370477 0.045479767 0.15373588
0.28862447 0.14361256 -0.029642334 -0.30343357 0.3862228 0.16605206 0.17677492 -0.07681141
0.16057357 0.0001956392 0.035131473 -0.26513422 -0.23590219 0.39935997 0.6244124 0.11019748
-0.05214958 -0.0011649528 0.05109294 0.25181186 -0.07164177 -0.14579436 -0.11392828 -0.23027995
-0.025529534 -0.14809974 -0.19873776 -0.18241775 -0.2517252 0.1581037 0.14531279 0.02491656
-0.10589635 0.043984294 -0.27844295 -0.22800301 -0.2083215 0.101308376 0.33010134 -0.14994138
-0.23794235 0.10793483 0.18108332 -0.3054556 -0.061494894 -0.31436938 0.27433556 0.4535809
0.535772 0.1661123 -0.0538081 0.073915504 0.02698427 0.109062396 0.014829522 0.25325134
0.12676291 -0.55155283 0.53809464 0.20751372 0.24567719 0.13716565 0.15212442 0.013847066
0.07069752 0.13426673 0.15297928 0.13784163 -0.09547486 0.21724015 0.019600306 -0.04404276
-0.18199012 -0.07228578 -0.36638895 -0.0032151344 -0.24308346 -0.12803507 0.04404466 0.0035116733
-0.36065075 0.24114758 -0.31967655 -0.011852681 -0.20289247 -0.11377629 -0.22579215 0.18880983
0.019307144 0.2290339 0.37584135 0.52650356 -0.61308384 -0.15379332 -0.2553782 0.05547065
0.13295427 0.15276559 0.29771072 -0.16550493 0.20271602 -0.25326526 -0.34473825 0.55359876
00000000: 89d7 5abe 802e ccbe 48e0 a9bc 640d f43d
00000010: cd60 06be 3595 febd 843b 22be 24ba 993e
00000020: c4f7 0cbe f4dd 4ebe 0493 733c ce0b 1b3e
00000030: f02f b53d 7e3a bbbe 525a 203e c459 42be
00000040: f0d6 a3be 091a 04be 5757 58be d853 f43d
00000050: 9a4d 563e d0db 913e e56b 5d3d eda5 9abe
00000060: f1f2 073f cfa9 bdbe 5dcd acbd 11bb 48bd
00000070: 18e7 19be f632 2cbe 61b8 e23d 80b1 f2bd
00000080: d6d3 eeba b4d4 06bd 475d 813e 7f74 c2be
00000090: 4020 e5bd 8f05 82bc 9acb e7bd 59e9 213e
000000a0: a6c1 ce3d 3a9b 0d3e eec8 e73d 2d82 1cbe
000000b0: 8db5 45bd e4b8 03bf 4945 8d3e 05be 33be
000000c0: ba4d 373e 3e1d 6abd 05b5 b5bb d2d5 74bc
000000d0: 1b7b 78be 0893 a33d d48c 453e 18c8 e8bc
000000e0: 0ca4 093c 1615 c7bc 2f30 d63c 8232 15bd
000000f0: 9f3c ed3e 19ed e23e 5555 0dbd cc73 b63c
00000100: 58d3 f0be a959 f8be f718 f43e 0983 32bf
00000110: f231 033d a61c 333e 2ecc 823e 93a3 ff3d
00000120: 5b91 893e 685e 213e e8e7 8c3e 3e79 7f3e
00000130: 235c ee3c b770 273d 3b3b 8c3e 77ab 943e
00000140: 198f 353e ff28 35bd dd5e 49bd 699b 6fbe
00000150: 99e7 43be 6c33 fc3c 0ce7 0c3e ab33 d93e
00000160: dc21 c23e 83c2 d4be cd2b abbd a94a 99bd
00000170: 5854 15bc f67c 1f3d 2c9e 96bd 04f4 b7be
00000180: 85b5 24be defb 403c 4f29 853c f683 9b3e
00000190: d165 aabe c1d0 f43e a88d cdbd d4d9 2f3d
000001a0: 9b72 8ebe a7d0 b43e f6d9 5e3e fb1f 243e
000001b0: cc32 db3e 2bef b9be 4a17 de3c 2110 063f
000001c0: b9db 713e 1fcf 08be fa00 3abd 0280 4ebd
000001d0: c154 2bbe 0147 0fbd a5f3 663e f1c7 943d
000001e0: 4876 48bd 9a9f 273e e67c 6cbe 7e15 353e
000001f0: 70b9 8e3e ed74 5bbe 555d 56bd f8f8 02bd
00000200: d2b4 813c 1628 2b3d a3ba e53d aab9 003e
00000210: 31e4 e23e 6c32 a43d 30c6 46be b69e aebe
00000220: ea46 9fbe d4b8 503e 33e5 323e 8113 03bd
00000230: ef35 c13c 7785 e8be 7184 e9be baec fe3e
00000240: 91e9 3c3e 3a8a 84be c019 5c3e 8234 113e
00000250: d4ac c9bb c3ed 393b fe48 3a3d f06c 1d3e
00000260: 96c6 933e 2c0f 133e 7bd4 f2bc a55b 9bbe
00000270: ffbe c53e 8d09 2a3e 7c04 353e 4d4f 9dbd
00000280: 666d 243e 7f24 4d39 05e6 0f3d acbf 87be
00000290: 5890 71be e978 cc3e 7ed9 1f3f 37af e13d
000002a0: cc9a 55bd 54b1 98ba d546 513d 7ced 803e
000002b0: ecb8 92bd 1e4b 15be 3b53 e9bd 82ce 6bbe
000002c0: 5023 d1bc 75a7 17be e981 4bbe b8cb 3abe
000002d0: 20e2 80be f0e5 213e e0cc 143e d01d cc3c
000002e0: 30e0 d8bd e028 343d 1390 8ebe 9f79 69be
000002f0: 3b52 55be c47a cf3d 0b03 a93e 3c8a 19be
00000300: 29a7 73be f00c dd3d e86d 393e ad64 9cbe
00000310: 12e2 7bbd 06f5 a0be b675 8c3e c13b e83e
00000320: 5b28 093f 5819 2a3e e265 5cbd 0361 973d
00000330: 1e0e dd3c 1b5c df3d 86f7 723c 29aa 813e
00000340: 23ce 013e 9132 0dbf 92c0 093f 7a7e 543e
00000350: cd92 7b3e 2775 0c3e 81c6 1b3e cede 623c
00000360: ddc9 903d 387d 093e 9aa6 1c3e 5b26 0d3e
00000370: 5388 c3bd 3474 5e3e d290 a03c 2e66 34bd
00000380: 9e5b 3abe 910a 94bd 5597 bbbe 01b5 52bb
00000390: dfea 78be a01b 03be 2c68 343d 1a24 663b
000003a0: 37a7 b8be 64ef 763e a5ac a3be bf31 42bc
000003b0: 0bc3 4fbe 8b03 e9bd 0f36 67be 5d57 413e
000003c0: 042a 9e3c dd87 6a3e 476e c03e f0c8 063f
000003d0: 10f3 1cbf ff7b 1dbe eec0 82be 3135 633d
000003e0: 2a25 083e 956e 1c3e 8a6d 983e 207a 29be
000003f0: ca94 4f3e fcab 81be 8881 b0be a6b8 0d3f

linear1.bias f4 [256]
0.008328879 0.063928835 0.01059598 -0.16820006 0.15891385 0.0034084627 -0.1356847 -0.0072069624
0.04525187 -0.14721154 0.1837899 -0.3554181 0.18963195 -0.26663703 0.053953975 0.053517114
-0.28631064 0.013695392 0.04901564 -0.09700615 -0.06779462 -0.16148283 0.06208997 0.22575176
0.09204564 0.036835127 0.038090117 0.18259078 0.1266701 -0.152827 -0.18369153 -0.024252648
0.038505733 0.11447545 0.07951586 -0.07414592 -0.059330538 -0.12480948 0.114636846 -0.16700189
-0.14837825 -0.07384333 -0.13645966 0.051460285 -0.16909528 0.09850812 -0.24198063 -0.084588714
-0.23076178 -0.26157317 -0.21407236 -0.124964744 -0.097264744 -0.2854356 -0.26477113 -0.072390825
-0.023717547 0.013063538 -0.25838384 -0.2108333 -0.20919794 0.08301278 0.15275364 -0.2768541
-0.1739379 0.074490786 -0.19561225 0.032329045 -0.0959518 0.05080597 0.0555439 -0.28443244
0.09431378 0.16522723 -0.12442437 -0.16834292 -0.24060172 -0.26351193 0.0030464083 0.07055325
0.017549975 -0.11784454 0.07907339 -0.38769963 0.04545458 -0.255878 -0.04705758 0.08840857
-0.09969683 -0.27029857 -0.11976331 0.16923943 -0.25133094 -0.1401929 0.006861492 0.09695208
-0.19468658 0.22923306 0.016736686 -0.055707026 0.0721986 0.09262802 0.063962944 -0.25251102
0.02951684 -0.09001988 -0.3088173 -0.106595546 0.3537534 0.075360164 -0.13101731 0.21546356
-0.17669204 -0.016522171 0.20334584 0.114509925 -0.024806553 -0.08376654 0.10798945 0.022805385
-0.13345326 -0.16247685 -0.14991917 0.18063737 0.08590787 0.11348975 -0.0770848 0.04696549
0.1212994 -0.012575523 0.21031779 0.03436787 -0.01615708 0.038719703 -0.16263774 -0.15150516
0.05317474 0.09352705 0.24262248 -0.20142542 -0.057658162 0.054466728 0.00885755 -0.1627576
0.11135018 0.109908186 0.18140702 0.020705685 0.24203277 0.1533411 0.110160075 0.1317634
-0.25257304 0.1329205 -0.03621193 0.18501706 -0.025824524 -0.28522134 0.40183344 0.2459308
-0.3326747 -0.14245619 0.17208433 0.34787023 0.22018914 -0.21542941 -0.34785655 0.14514609
0.27517083 -0.115817085 -0.1657284 -0.14531407 0.134658 -0.028776083 0.017106006 0.07666462
0.13986948 -0.029786253 0.14206812 -0.044297226 -0.08704445 0.070051484 0.16345291 0.059907407
0.17058161 0.2554201 -0.30642244 0.07769945 0.016185937 -0.26381302 0.038079068 0.15305042
0.06903333 -0.09871435 -0.12348391 0.06246073 -0.19737518 -0.024952885 0.25001326 -0.055162918
-0.00740713 -0.1998949 0.16800539 0.018413968 -0.14206801 0.039630078 0.1270333 0.252207
0.050526053 0.06107023 -0.11219166 0.16076607 0.110787034 -0.23190397 0.20002292 -0.013773686
-0.12721978 -0.12972242 -0.33816037 0.06484568 -0.2531088 0.15502967 0.20390879 0.3078835
0.034137156 -0.08725543 0.08902669 0.19226187 0.1802691 0.031601835 0.08319004 0.19686271
0.019196615 -0.112453036 0.20769463 0.0059344866 0.3143425 0.16627479 0.019177845 -0.10204391
0.13566127 -0.0006986216 0.10063923 0.28970236 0.1006231 0.27037767 -0.13969633 -0.16308774
-0.025948808 -0.044616077 -0.112268284 -0.15290767 0.038526982 -0.36290205 0.08449991 0.22594164
00000000: da75 083c 1fed 823d c39a 2d3c a33c 2cbe
00000010: 50ba 223e 8460 5f3b eef0 0abe 6228 ecbb
00000020: 065a 393d 9fbe 16be 6b33 3c3e 5cf9 b5be
00000030: e12e 423e a684 88be d8fe 5c3d c334 5b3d
00000040: 4f97 92be a362 603c a0c4 483d 29ab c6bd
00000050: e8d7 8abd c15b 25be 0d52 7e3d 782b 673e
00000060: 6d82 bc3d 6ee0 163d 6204 1c3d 14f9 3a3e
00000070: cfb5 013e ae7e 1cbe a219 3cbe 7dad c6bc
00000080: 30b8 1d3d 1b72 ea3d 36d9 a23d d1d9 97bd
00000090: 9404 73bd 1d9c ffbd b9c6 ea3d 8b02 2bbe
000000a0: 78f0 17be 2c3b 97bd 15bc 0bbe 05c8 523d
000000b0: 5027 2dbe a0be c93d c5c9 77be d93c adbd
000000c0: d14c 6cbe ebec 85be c935 5bbe 84ed ffbd
000000d0: bd32 c7bd 9d24 92be 1590 87be a441 94bd
000000e0: 4d4b c2bc 7308 563c e34a 84be afe4 57be
000000f0: fc37 56be 9b02 aa3d 736b 1c3e d2bf 8dbe
00000100: c71c 32be a08e 983d 944e 48be 766b 043d
00000110: 6182 c4bd ec19 503d 0082 633d 21a1 91be
00000120: 9527 c13d 5431 293e 34d2 febd 1662 2cbe
00000130: 4c60 76be 09eb 86be 40a6 473b 397e 903d
00000140: f7c4 8f3c 7a58 f1bd 3bf1 a13d 9180 c6be
00000150: 952e 3a3d 7102 83be 73bf 40bd 8d0f b53d
00000160: da2d ccbd 9364 8abe 7746 f5bd 1a4d 2d3e
00000170: 73ae 80be ba8e 0fbe 5ed6 e03b d08e c63d
00000180: eb5b 47be 12bc 6a3e 601b 893c 0d2d 64bd
00000190: dcdc 933d c2b3 bd3d 01ff 823d 2049 81be
000001a0: 4dcd f13c 585c b8bd 4d1d 9ebe c44e dabd
000001b0: 2a1f b53e 6e56 9a3d 6729 06be 7ba2 5c3e
000001c0: c2ee 34be 8159 87bc e439 503e 2e84 ea3d
000001d0: 1d37 cbbc cb8d abbd 9329 dd3d 5cd2 ba3c
000001e0: f9a7 08be 5560 26be 6984 19be 01f9 383e
000001f0: 77f0 af3d 506d e83d a3de 9dbd e35e 403d
00000200: d26b f83d 9109 4ebc 8c5d 573e 53c5 0c3d
00000210: da5b 84bc 8d98 1e3d 828a 26be 2b24 1bbe
00000220: c2cd 593d 1c8b bf3d 0772 783e 7742 4ebe
00000230: f72a 6cbd 8118 5f3d 421f 113c eea9 26be
00000240: 900b e43d 8b17 e13d c3c2 393e f89e a93c
00000250: 70d7 773e 7305 1d3e 9b9b e13d fcec 063e
00000260: 4151 81be 501c 083e f652 14bd 1d75 3d3e
00000270: f48d d3bc 8808 92be 1dbd cd3e 49d5 7b3e
00000280: 5754 aabe 09e0 11be e036 303e 0c1c b23e
00000290: 4379 613e 8799 5cbe 411a b2be 2da1 143e
000002a0: 31e3 8c3e 8231 edbd b5b4 29be 36cd 14be
000002b0: c9e3 093e d2bb ebbc e521 8c3c 5702 9d3d
000002c0: f239 0f3e 4d02 f4bc 4e7a 113e 0271 35bd
000002d0: 5c44 b2bd 2777 8f3d 3360 273e 7861 753d
000002e0: f2ac 2e3e 6cc6 823e 67e3 9cbe e420 9f3d
000002f0: 5f98 843c 8012 87be ccf8 1b3d 40b9 1c3e
00000300: 5961 8d3d c02a cabd 22e5 fcbd d3d6 7f3d
00000310: b81c 4abe fe69 ccbc bd01 803e 83f2 61bd
00000320: 83b7 f2bb 40b1 4cbe 9b09 2c3e e4d8 963c
00000330: 477a 11be 2653 223d 0415 023e 4721 813e
00000340: 68f4 4e3d c724 7a3d bec4 e5bd dc9f 243e
00000350: 50e4 e23d 3c78 6dbe cfd2 4c3e 07ab 61bc
00000360: e745 02be f4d5 04be 5b23 adbe d0cd 843d
00000370: 7a97 81be 19c0 1e3e 77cd 503e e8a2 9d3e
00000380: 67d3 0b3d fab2 b2bd a053 b63d 4ce0 443e
00000390: 7798 383e ed70 013d 8a5f aa3d 6196 493e
000003a0: 3842 9d3c c74d e6bd e7ad 543e 1576 c23b
000003b0: 80f1 a03e f043 2a3e db1a 9d3c 66fc d0bd
000003c0: caea 0a3e b423 37ba f11b ce3d de53 943e
000003d0: 7c13 ce3d f16e 8a3e 8e0c 0fbe 7900 27be
000003e0: 9892 d4bc 59bf 36bd eaec e5bd d493 1cbe
000003f0: 78ce 1d3d 4cce b9be 4a0e ad3d 3f5d 673e

linear2.weight f4 [3, 256]
0.18513544 -0.18638611 -0.05291828 -0.025271991 -0.031186525 -0.30142388 -0.15852557 -0.12413656
-0.04615211 -0.3216852 -0.0027655684 -0.029848488 -0.46139863 -0.2550751 0.17569153 -0.033523493
-0.036637425 0.1712495 -0.09848911 0.08340362 -0.0072106468 -0.13225882 -0.071663864 0.08381088
0.058997594 -0.10002184 -0.021061681 -0.17821473 0.056129783 -0.3323416 0.0678277 -0.07723438
0.11266003 -0.040150788 -0.24952528 0.011514567 0.34410572 -0.08414798 -0.022950698 -0.0691348
-0.19541842 -0.04447571 -0.18786503 -0.16532916 0.030035814 0.23964189 0.01215594 0.09119368
-0.19117914 -0.0036550525 -0.12105343 -0.21101111 -0.37938052 -0.055720184 -0.20486596 -0.3441278
0.017319715 -0.12934944 -0.1740531 0.15757972 -0.00075509597 0.022601886 -0.026735123 0.070930414
-0.032690965 0.009142252 -0.090173684 -0.16287623 -0.037372697 0.2799737 0.25404748 -0.12294655
0.052382994 0.08893849 -0.4317226 -0.21730892 0.023275923 0.021940501 -0.20037025 -0.06961957
0.020647708 -0.0268192 -0.11920123 0.03176566 0.11282528 -0.16453272 -0.14385842 -0.0888232
0.061106227 -0.028896147 0.0820663 -0.03587792 -0.29440713 0.1362871 0.06985444 -0.15815568
-0.06492566 0.16251627 0.167434 0.26140806 0.026244877 -0.21681075 0.16364908 -0.20295279
-0.059148803 -0.18573286 0.15362632 0.16254468 0.17793201 0.108057454 0.21822114 -0.20020112
0.14831701 -0.062519304 0.14139734 -0.051824193 -0.021499949 -0.31588686 -0.07533646 -0.21039385
-0.13129236 -0.19592676 0.27466956 0.19032611 0.30591813 -0.17452256 0.0085940175 -0.060702167
0.055944845 -0.07397508 0.202586 0.2855713 0.22196831 0.07492601 0.11886778 -0.12942779
0.32136947 -0.23419109 0.12654062 -0.015387713 -0.06687389 -0.18785578 0.19409879 -0.4068535
-0.1867343 -0.20024185 0.12720728 -0.033250913 -0.40810847 0.01746752 -0.10059891 0.21080485
0.004907734 -0.19466013 -0.16146958 -0.09117201 -0.17610449 -0.07290864 0.2660134 0.25333259
0.0063539958 -0.1837993 -0.015350269 0.12326169 0.013224595 -0.392625 -0.036246203 -0.042137016
0.16117518 -0.29418078 -0.38038248 -0.36792934 -0.026545981 -0.13220544 -0.19555525 -0.13910605
0.0799038 0.14597966 0.062282935 -0.03349366 -0.04553324 0.21084432 0.31465027 0.121394746
-0.062088065 0.21761546 -0.06246685 -0.11884341 -0.036565766 -0.14429717 0.0536511 0.3429634
0.2117848 -0.12716536 -0.056078456 0.08097786 0.13675378 0.08844844 0.08941349 -0.02749491
0.0007823855 0.1510419 0.017261894 0.23117119 -0.19054782 -0.08495317 -0.14326176 0.2980259
0.12926045 -0.0014053483 0.16520473 -0.1807019 0.0009988248 0.0025669015 -0.009544366 -0.10093479
-0.005485163 -0.22690228 0.049176823 -0.21233927 -0.122635596 -0.13961524 -0.0023840533 0.14524646
-0.11678504 -0.039019957 0.09742834 0.5089823 -0.015860802 0.05615646 -0.116052 0.23908153
-0.107081585 -0.67217535 -0.026824847 -0.21080683 0.24002253 -0.26564556 0.21317811 0.007821262
0.12835789 -0.038824126 -0.025872966 0.30093327 -0.10911352 -0.047904808 -0.1074152 0.13047923
-0.08836381 -0.33005401 0.16731273 -0.10868397 0.13546988 0.001910307 0.076243624 -0.36808255
00000000: 2594 3d3e 00dc 3ebe d7c0 58bd 3507 cfbc
00000010: e27a ffbc 3b54 9abe 8754 22be 4f3b febd
00000020: ff09 3dbd ecb3 a4be 8a3e 35bb d184 f4bc
00000030: 713c ecbe 3499 82be 7be8 333e ee4f 09bd
00000040: 2011 16bd 075c 2f3e a9b4 c9bd 84cf aa3d
00000050: 4a47 ecbb db6e 07be 81c4 92bd 0aa5 ab3d
00000060: 76a7 713d 40d8 ccbd 8c89 acbc ec7d 36be
00000070: 58e8 653d ae28 aabe 40e9 8a3d 0f2d 9ebd
00000080: 4dba e63d 2775 24bd 8e83 7fbe 98a7 3c3c
00000090: a02e b03e c755 acbd 1a03 bcbc 8c96 8dbd
000000a0: c41b 48be 292c 36bd b15f 40be 0c4c 29be
000000b0: ab0d f63c af64 753e b529 473c c1c3 ba3d
000000c0: 77c4 43be 9b89 6fbb dcea f7bd 4c13 58be
000000d0: 2a3e c2be d93a 64bd 62c8 51be 8531 b0be
000000e0: 13e2 8d3c 2e74 04be fa3a 32be 945c 213e
000000f0: a2f1 45ba 9727 b93c 9e03 dbbc f743 913d
00000100: f6e6 05bd 62c9 153c fbac b8bd 07c9 26be
00000110: 1d14 19bd b658 8f3e 8312 823e 67cb fbbd
00000120: 8d8f 563d 6225 b63d bf0a ddbe 3b86 5ebe
00000130: 26ad be3c 91bc b33c dc2d 4dbe b594 8ebd
00000140: 6225 a93c f0b3 dbbc c61f f4bd b51c 023d
00000150: f110 e73d 447b 28be 9f4f 13be f0e8 b5bd
00000160: 864a 7a3d 9db7 ecbc 6012 a83d baf4 12bd
00000170: 88bc 96be d88e 0b3e d80f 8f3d 90f3 21be
00000180: bff7 84bd aa6a 263e d273 2b3e 47d7 853e
00000190: 7fff d63c a303 5ebe a093 273e dbd2 4fbe
000001a0: 0446 72bd c130 3ebe 3850 1d3e 1d72 263e
000001b0: cf33 363e 3a4d dd3d 5d75 5f3e 8601 4dbe
000001c0: 6ae0 173e 1f0a 80bd 77ca 103e 9b45 54bd
000001d0: a920 b0bc ecbb a1be 004a 9abd 7c71 57be
000001e0: 8171 06be 06a1 48be 7da1 8c3e d9e4 423e
000001f0: 4da1 9c3e 0bb6 32be eccd 0c3c d6a2 78bd
00000200: 6c26 653d 3f80 97bd b472 4f3e 6736 923e
00000210: a94b 633e cf72 993d f370 f33d b888 04be
00000220: 8a8a a43e cacf 6fbe dd93 013e bf1c 7cbc
00000230: 2ef5 88bd 445d 40be d5c1 463e 1a4f d0be
00000240: 4737 3fbe 330c 4dbe a042 023e 1c32 08bd
00000250: 98f3 d0be 0b18 8f3c cd06 cebd 3add 573e
00000260: 0fd1 a03b fc54 47be 4858 25be 64b8 babd
00000270: bc54 34be 2051 95bd e932 883e cfb4 813e
00000280: 2e35 d03b e235 3cbe b27f 7bbc a070 fc3d
00000290: f9ab 583c 2506 c9be e676 14bd dd97 2cbd
000002a0: 1b0b 253e dd9e 96be 7ec1 c2be 3c61 bcbe
000002b0: f576 d9bc dd60 07be a33f 48be d171 0ebe
000002c0: 9aa4 a33d b17b 153e 641c 7f3d a630 09bd
000002d0: 1081 3abd 93e7 573e d719 a13e cf9d f83d
000002e0: 0e50 7ebd 96d6 5e3e 3ddd 7fbd 2c64 f3bd
000002f0: fcc5 15bd a3c2 13be 41c1 5b3d e698 af3e
00000300: 1dde 583e a337 02be 86b2 65bd b8d7 a53d
00000310: 2f09 0c3e 7524 b53d 6b1e b73d 013d e1bc
00000320: 0119 4d3a baaa 1a3e d168 8d3c 24b8 6c3e
00000330: f81e 43be edfb adbd 36b3 12be da96 983e
00000340: da5c 043e aa33 b8ba 6e2b 293e eb09 39be
00000350: 00eb 823a 7639 283b f95f 1cbc e6b6 cebd
00000360: e2bc b3bb 1259 68be a36d 493d 776f 59be
00000370: 5f28 fbbd 4cf7 0ebe c73d 1cbb 7dbb 143e
00000380: ff2c efbd 64d3 1fbd 8288 c73d aa4c 023f
00000390: 83ee 81bc 5104 663d acac edbd cad1 743e
000003a0: 974d dbbd af13 2cbf c8bf dbbc bfdd 57be
000003b0: 77c8 753e b202 88be 5d4b 5a3e c024 003c
000003c0: 4070 033e 0c06 1fbd 8bf3 d3bc ed13 9a3e
000003d0: e976 dfbd d537 44bd 80fc dbbd 599c 053e
000003e0: 16f8 b4bd d7fc a8be 0754 2b3e b495 debd
000003f0: 9eb8 0a3e 4463 fa3a 9e25 9c3d 5175 bcbe

linear2.bias f4 [3]
0.016446304 -0.08306157 -0.11896619
00000000: 66ba 863c 2f1c aabd 8ca4 f3bd
